my_model_saves/tfinance_model.pkl (torch, 12842 bytes, 14 tensors)

gnn.linear.weight f4 [16, 15]
0	0x3c44a823	0.012002978
1	0x3ead8433	0.33889922
2	0x3ef84fdc	0.48498428
3	0x3e393f13	0.18090467
4	0x3f170684	0.5899432
5	0x3f08fef2	0.53514016
6	0x3edf909d	0.4366502
7	0x3cedb18b	0.029015323
8	0x3eef77f9	0.4677122
9	0xbeb463d0	-0.352324
10	0x3f2d20bb	0.6762807
11	0xbeb3f40f	-0.3514714
12	0xbd34b32c	-0.044116184
13	0x3cc3e33d	0.023912067
14	0x3e143667	0.14473878
15	0xbd9ce17d	-0.07660196
16	0xbe69b7f2	-0.22824076
17	0xbe316df9	-0.17327107
18	0xbe259e6f	-0.16173719
19	0xbeacecda	-0.33774453
20	0xbd84394a	-0.064562395
21	0xbd0773e6	-0.033069514
22	0xbdaeddc7	-0.085383944
23	0xbc8e65ba	-0.017382491
24	0x3e2b1a29	0.16709198
25	0xbc1c54a2	-0.009541662
26	0xbe307dca	-0.17235485
27	0xbe45cce8	-0.19316447
28	0xbe881cd4	-0.26584494
29	0xbe373237	-0.17890249
30	0x3eb6ac91	0.35678533
31	0x3ece1897	0.40253136
32	0x3f186227	0.5952477
33	0x3eb9d3e0	0.3629446
34	0x3f343712	0.7039653
35	0x3ea09e74	0.3137089
36	0x3ef8000e	0.48437542
37	0x3f232a60	0.63736534
38	0x3eb2b8b4	0.34906542
39	0xbda95336	-0.08267824
40	0x3f0a474c	0.5401504
41	0x3e18af26	0.14910564
42	0x3e9c31f9	0.30506876
43	0xbe8876d2	-0.26653153
44	0x3e8ea400	0.27859497
45	0x3e87b3a1	0.26504233
46	0x3f14975b	0.5804345
47	0x3f2b0df2	0.66818154
48	0x3ed7814e	0.4209084
49	0x3f41d181	0.757103
50	0x3f0bd538	0.5462222
51	0x3f2aa7a6	0.6666206
52	0x3f4a96b5	0.7913621
53	0x3d23facc	0.0400341
54	0x3f0573fc	0.52130103
55	0x3ef71c7a	0.48263913
56	0xbd864796	-0.06556623
57	0x3ef4b250	0.47792292
58	0xbe920bc6	-0.28524607
59	0x3daa2c39	0.08309216
60	0x3f05d93b	0.5228459
61	0x3f0fe16e	0.56203353
62	0x3f3a65c4	0.7281153
63	0x3efdfa0c	0.49604833
64	0x3f143315	0.57890445
65	0x3ef2d2aa	0.4742635
66	0x3eae5098	0.34045863
67	0x3f25ee83	0.64817065
68	0x3eccf86d	0.40033284
69	0x3ed346db	0.41264996
70	0x3ef57823	0.4794322
71	0xbcfd86f0	-0.030948132
72	0x3ef9d9ed	0.48799077
73	0xbe399b47	-0.1812564
74	0xbd14faea	-0.036372103
75	0x3cc5c61f	0.024142323
76	0x3d2ac9df	0.041696426
77	0xbdf84585	-0.12122635
78	0x3d16a659	0.036779735
79	0x3df91e44	0.12163976
80	0xbd7efdaf	-0.06225365
81	0xbc96eb47	-0.018422736
82	0xbd862c92	-0.0655147
83	0x3dc9814c	0.098391145
84	0xbe3a1c37	-0.18174826
85	0xbe456fc5	-0.19280918
86	0x3d0f4d00	0.034985542
87	0xbe971276	-0.29506272
88	0xbd96199e	-0.07329105
89	0xbe365bf0	-0.17808509
90	0x3ec50142	0.38477522
91	0x3d9d4c08	0.076805174
92	0x3f0162ec	0.5054157
93	0x3f136712	0.5757915
94	0x3ec1d438	0.37857223
95	0x3ea89e40	0.32933235
96	0x3f12cee9	0.5734697
97	0x3e51f9d0	0.20505452
98	0x3ea2ab7c	0.31771457
99	0x3d8da232	0.06915702
100	0x3e814004	0.25244153
101	0x3d22273e	0.039588206
102	0x3eb2a948	0.34894776
103	0xbd9d03e7	-0.0766676
104	0x3c24cd96	0.010058781
105	0x3e405ab1	0.18784596
106	0x3d34f38b	0.044177573
107	0x3db91f25	0.090391435
108	0x3ea1696e	0.3152575
109	0x3f102bd5	0.5631688
110	0xbdcf7961	-0.10130573
111	0x3e2ba3ef	0.16761754
112	0xbe3c0722	-0.18362096
113	0xbecab35f	-0.39589974
114	0xbeb5af10	-0.35485125
115	0x3e97f117	0.29676124
116	0x3e81ca8b	0.2534984
117	0x3e37c1f3	0.1794508
118	0x3e805e40	0.25071907
119	0x3da1e7de	0.07905553
120	0x3edbf41a	0.42959672
121	0x3f0b419d	0.5439699
122	0x3e508829	0.20364441
123	0x3f1510c6	0.5822872
124	0x3eff9117	0.49915382
125	0x3f0a4c60	0.5402279
126	0x3eaad9d8	0.33369327
127	0x3ee36fa1	0.44421104
128	0xbe2e5bcd	-0.17027207
129	0x3d80d44e	0.06290494
130	0x3ee24ce1	0.4419928
131	0x3e14d770	0.14535308
132	0x3f13dc38	0.577579
133	0x3de85a78	0.113453805
134	0x3ee76c19	0.4519966
135	0x3efe7345	0.4969732
136	0x3f1f9e7f	0.6235122
137	0x3ef0d9e5	0.4704124
138	0x3e647788	0.22311223
139	0x3e97a802	0.29620367
140	0x3ee559c8	0.4479506
141	0x3ea21516	0.31656712
142	0x3f0851f5	0.53250057
143	0x3ecf1cc6	0.4045164
144	0x3ef66d76	0.48130387
145	0x3f1089c6	0.56460226
146	0x3e1665c4	0.14687258
147	0x3ef50f2f	0.47863147
148	0xbeef1a96	-0.4669997
149	0xbc8018f8	-0.015636906
150	0x3ebbe1ae	0.36695617
151	0x3ec0b19e	0.3763551
152	0x3f0e7ca8	0.5565896
153	0x3d071fc7	0.03298929
154	0x3de1c903	0.11024668
155	0x3f16c226	0.58889997
156	0x3f11a8ba	0.5689808
157	0x3e2d63d4	0.16932613
158	0x3db74b28	0.08949882
159	0x3cea0b27	0.028569771
160	0x3f1eeacf	0.6207704
161	0x3e3daf25	0.18523844
162	0x3f20f37e	0.6287154
163	0xbec2d369	-0.38051918
164	0xbdfe2fe2	-0.12411477
165	0x3e509f5b	0.2037329
166	0x3eaf4127	0.34229395
167	0x3e906da1	0.2820864
168	0x3e956439	0.29178026
169	0xbe3bd486	-0.1834279
170	0x3eb61ad5	0.35567346
171	0xbe53a36c	-0.20667809
172	0x3dc84891	0.09779466
173	0xbdb51751	-0.08842338
174	0xbc1e98a0	-0.009679943
175	0x3e3c8963	0.18411784
176	0xbd945c70	-0.072441936
177	0xbc87d206	-0.01657964
178	0xbe6f3533	-0.23360138
179	0xbe572385	-0.21009643
180	0x3ef4f225	0.47840992
181	0x3e31b5a9	0.17354454
182	0x3e318878	0.17337215
183	0x3e9957ab	0.29949698
184	0x3e83b72a	0.2572568
185	0x3e19141c	0.14949077
186	0x3f187058	0.5954642
187	0x3eaa93eb	0.33315977
188	0x3c8a7b50	0.016904503
189	0xbe57aace	-0.2106125
190	0x3ed38a77	0.41316578
191	0x3db116e5	0.08646945
192	0x3dc71047	0.097199015
193	0x3dd1c5fb	0.1024284
194	0x3eece74f	0.46270224
195	0xbeac45b5	-0.33646932
196	0xbdbc54da	-0.09195872
197	0x3e9c9635	0.3058335
198	0x3f08cd55	0.5343831
199	0xbd61fb44	-0.055171266
200	0x3e9775e4	0.2958213
201	0x3de9595c	0.11393997
202	0x3c0acf49	0.008472272
203	0x3cc9f6ec	0.024653874
204	0x3e269578	0.16267955
205	0x3e87710f	0.26453444
206	0xbe74a9bc	-0.23892874
207	0xbd81ef22	-0.06344439
208	0x3cf3c808	0.029758468
209	0x3e792447	0.24330245
210	0xbe915218	-0.28382945
211	0x3f0a2ff9	0.5397945
212	0x3d2f6339	0.042819235
213	0xbe585ec7	-0.21129905
214	0x3e841632	0.25798184
215	0x3deb2224	0.11481121
216	0x3dafac5b	0.08577796
217	0x3e217683	0.15767865
218	0xbe665953	-0.22495012
219	0xbd8c7cab	-0.06859716
220	0xbcf936e9	-0.030421691
221	0x3dbd27c3	0.092360996
222	0x3ed56db0	0.41685247
223	0x3e1f00eb	0.15527694
224	0xbc2bb356	-0.010479769
225	0xbeb500d3	-0.3535219
226	0xbebee900	-0.3728714
227	0xbf09c2df	-0.53812975
228	0xbef38285	-0.47560516
229	0xbf20c204	-0.62796044
230	0xbf0ed00a	-0.5578619
231	0xbf1579bf	-0.58388895
232	0xbed60c04	-0.41806042
233	0xbef04dc0	-0.4693432
234	0xbee5830f	-0.44826552
235	0xbf44b490	-0.76838017
236	0x3d65214c	0.055939957
237	0xbe798747	-0.2436801
238	0xbd70b869	-0.058769617
239	0x3d8607e1	0.065444715

gnn.linear.bias f4 [16]
0	0x3d2d3699	0.042288397
1	0xbe184ae0	-0.14872313
2	0x3ea0da5a	0.3141659
3	0x3e08cc22	0.1335912
4	0x3d875f48	0.0660997
5	0xbe82a747	-0.25518247
6	0x3c65b67a	0.014020557
7	0x3ea42fb6	0.3206765
8	0x3edaa31b	0.42702565
9	0x3b4e80e0	0.003150992
10	0xbc4e7c6a	-0.012602905
11	0x3e1d6127	0.15369092
12	0x3eaa8e59	0.33311728
13	0xbe12b3b3	-0.14326362
14	0xbe523ce6	-0.20531043
15	0x3e824c8f	0.25449035

gnn.linear2.weight f4 [16, 16]
0	0xbc8f6d20	-0.01750809
1	0xbe71acda	-0.23601094
2	0xbe1388e4	-0.14407688
3	0x3dcf8880	0.10133457
4	0xbdad9310	-0.084753156
5	0x3e309d1a	0.1724743
6	0x3e4a47e2	0.19753984
7	0x3d14e3b0	0.036349952
8	0xbca1de10	-0.019759208
9	0xbda271c0	-0.07931852
10	0xbc4f04a0	-0.01263538
11	0x3d3a4cd0	0.04548341
12	0xbe4373be	-0.19087121
13	0xbd749d18	-0.05972013
14	0xbe54d6a8	-0.2078501
15	0x3e1d0bba	0.15336505
16	0xbe2bb5ea	-0.16768613
17	0x3e2c2bcd	0.16813584
18	0xbe0142e4	-0.12623173
19	0xbe4f7bb5	-0.20262034
20	0x3d73617f	0.05941915
21	0xbd2db02b	-0.042404335
22	0x3de1e899	0.110306926
23	0x3d352c79	0.044231866
24	0xbe9a2583	-0.30106744
25	0x3dc790ae	0.09744392
26	0x3b2b09c3	0.0026098348
27	0xbe3486ff	-0.17629622
28	0x3dc8b123	0.09799411
29	0x3dfbb999	0.12291259
30	0xbe8e5d87	-0.2780573
31	0xbda82e8a	-0.082120016
32	0x3f19c22e	0.6006192
33	0x3e1fb626	0.15596828
34	0x3e91aeca	0.28453666
35	0x3e093b66	0.13401565
36	0x3cfde714	0.030993976
37	0x3e8dac61	0.27670577
38	0x3df02cb3	0.11727276
39	0x3e2d3740	0.16915607
40	0xbe02ced3	-0.1277421
41	0xbdc0dfe8	-0.09417707
42	0x3e8773cc	0.26455534
43	0xbdaec3f0	-0.08533466
44	0x3e08fe19	0.1337818
45	0x3ece7fee	0.40331978
46	0xbccd6918	-0.025074527
47	0xbe705b18	-0.2347225
48	0x3e9b510e	0.30335277
49	0xbe419081	-0.1890278
50	0x3eed523d	0.46351805
51	0xbe30119e	-0.1719422
52	0xbdc774fb	-0.09739109
53	0xbd977c48	-0.07396752
54	0xbcc00ba4	-0.02344305
55	0x3e312851	0.17300536
56	0x3e95f293	0.29286632
57	0xbe1b5e40	-0.15172672
58	0x3d316276	0.04330679
59	0xbe548109	-0.20752348
60	0x3eba5278	0.36391044
61	0x3d5e988f	0.05434471
62	0x3e1eaefc	0.15496439
63	0xbd15fed8	-0.03661999
64	0xbed2d498	-0.4117782
65	0xbdd00138	-0.101564825
66	0xbdc28a12	-0.09498991
67	0xbe016f53	-0.12640123
68	0xbee8493c	-0.45368373
69	0x3d920ff3	0.07131948
70	0xbe99e4d9	-0.3005741
71	0x3e5fdd61	0.21861793
72	0x3e3f1dc5	0.186637
73	0xbf2cfc79	-0.6757274
74	0xbea6cd99	-0.32578734
75	0xbe6d8b2b	-0.2319762
76	0x3d83856b	0.06421932
77	0xbea1ba68	-0.3158753
78	0x3dfe2a6c	0.12410435
79	0x3f0d7351	0.55254084
80	0xbe2d6c20	-0.16935778
81	0x3dedb934	0.1160759
82	0xbe48b48c	-0.19600123
83	0xbe59d562	-0.21272805
84	0x3d9c6f08	0.07638365
85	0x3b70abe0	0.003672354
86	0xbdeebc7c	-0.11657044
87	0xbe76cb58	-0.24101007
88	0xbdc61e54	-0.096737534
89	0x3daaecfc	0.083459824
90	0xbe6cd727	-0.23128949
91	0xbe789366	-0.24274978
92	0x3d01daf0	0.031702936
93	0xbe3855b8	-0.18001449
94	0xbe602b3c	-0.21891493
95	0xbdc52c0c	-0.09627542
96	0xbd242d10	-0.040082037
97	0xbe688438	-0.22706687
98	0xbe30cc2e	-0.17265388
99	0x3c8637f0	0.016384095
100	0xbe82c2fe	-0.25539392
101	0xbd0fdbe0	-0.0351218
102	0xbe24a6c7	-0.16079246
103	0xbe457fc1	-0.19287015
104	0x3d8d3ae1	0.06895996
105	0xbe44f232	-0.19233015
106	0xbe41e99c	-0.18936771
107	0x3df54480	0.11975956
108	0x3d3f5c78	0.046719044
109	0x3e5c8c4b	0.21537893
110	0xbd88ca14	-0.06679168
111	0xbdf66d4c	-0.120325655
112	0xbaa724c0	-0.0012752041
113	0x3d71dec9	0.059050355
114	0x3e9d5e6b	0.30736098
115	0xbd864496	-0.065560505
116	0xbdac8153	-0.08423104
117	0x3e187430	0.14888072
118	0xbe838a21	-0.25691321
119	0x3e138821	0.14407398
120	0x3e87dc49	0.26535252
121	0xbe83aeef	-0.257194
122	0x3e728b43	0.23685937
123	0xbe895319	-0.2682121
124	0x3e867b3a	0.2626589
125	0xbe5d2ddc	-0.21599525
126	0x3d35306a	0.044235624
127	0xbe6951a1	-0.22785045
128	0xbe5714f2	-0.21004084
129	0x3b715560	0.003682457
130	0x3e49a0dc	0.19690269
131	0xbe5b21be	-0.2139959
132	0xbde445d0	-0.11146128
133	0x3e60bb6d	0.21946497
134	0xbd2ba3b0	-0.04190415
135	0x3dd4030c	0.10352144
136	0xbe762724	-0.24038368
137	0xbda0efc4	-0.07858232
138	0xbe01f15a	-0.12689725
139	0x3e57b83c	0.21066374
140	0x3dd4660c	0.103710264
141	0xbe3ab4f6	-0.18233094
142	0x3d250470	0.040287435
143	0xbb3c37c0	-0.0028719753
144	0xbdd243a8	-0.10266811
145	0xbe122014	-0.1427005
146	0xbda9d1f0	-0.082919955
147	0x3e49b076	0.19696221
148	0xbe376d22	-0.17912725
149	0xbe3645a2	-0.178
150	0xbd9de2b8	-0.07709259
151	0x3b8e7137	0.0043469924
152	0x3d8b4e4c	0.06802043
153	0x3bf5b550	0.007498421
154	0xbd766268	-0.06015244
155	0xbe1b26a4	-0.15151459
156	0xbd37a680	-0.04483652
157	0xbdce0228	-0.10059005
158	0x3e4ebaec	0.20188493
159	0xbe7912ba	-0.2432355
160	0xbe15869c	-0.1460213
161	0xbe142dbc	-0.14470571
162	0x3d80fa80	0.06297779
163	0x3eb2188c	0.34784353
164	0x3e1d1238	0.15338981
165	0xbe1cc58e	-0.15309736
166	0xbe6b5f27	-0.22985516
167	0x3e503a0f	0.20334648
168	0x3e5e635f	0.21717595
169	0x3e18c185	0.14917572
170	0x3e50a009	0.20373549
171	0xbdc906b3	-0.09815731
172	0x3e965e49	0.2936881
173	0x3b682d8e	0.0035427543
174	0x3d0f40d1	0.034973923
175	0xbe0fec44	-0.14054972
176	0xbe5bdb2a	-0.21470323
177	0x3e91964b	0.28434977
178	0x3ea07ac0	0.3134365
179	0xbeaf7ccf	-0.3427491
180	0xbf029c45	-0.510197
181	0xbd85f945	-0.06541685
182	0xbea29c83	-0.31760034
183	0x3ef6a29b	0.48170933
184	0x3e2f5028	0.17120421
185	0xbf0606d8	-0.5235419
186	0xbe384025	-0.17993219
187	0xbe989fe9	-0.29809502
188	0x3e825273	0.2545353
189	0xbe8397eb	-0.25701842
190	0xbeb4936a	-0.35268718
191	0x3e24e2a3	0.1610208
192	0x3e2a0f82	0.16607478
193	0x3e3adac9	0.18247522
194	0xbe5be2fa	-0.21473303
195	0x3b2024e9	0.0024436063
196	0x3dffd560	0.1249187
197	0x3dc404f8	0.0957126
198	0xbde6339c	-0.112403125
199	0xbd283f8f	-0.04107624
200	0xbdb0cebd	-0.08633182
201	0x3d87bc6d	0.06627736
202	0xbde251a1	-0.11050726
203	0x3e3fb0fb	0.18719856
204	0x3da680a8	0.08130008
205	0xbe1b077a	-0.15139571
206	0x3e13f8ec	0.14450425
207	0x3e3e5a29	0.18589081
208	0xbdc9bf98	-0.09850997
209	0xbd8f56e8	-0.06998998
210	0x3dce4395	0.10071484
211	0xbe48a82c	-0.19595402
212	0x3da01a9a	0.07817574
213	0x3d6eca00	0.05829811
214	0x3e183d0f	0.14867042
215	0xbe5ec174	-0.21753484
216	0xbe66c329	-0.22535385
217	0x3db37629	0.08762772
218	0x3db856dc	0.09000942
219	0xbe6e2972	-0.23257998
220	0xbe1f669c	-0.15566486
221	0xbe6a1f28	-0.22863448
222	0xbe3750fe	-0.1790199
223	0xbde6e724	-0.11274555
224	0x3f085653	0.5325672
225	0xbd4bbae0	-0.049738765
226	0x3ed35cce	0.41281742
227	0x3f23a0c6	0.63917196
228	0x3f0864eb	0.5327899
229	0xbdf2be6f	-0.118527286
230	0x3e1a64f7	0.15077578
231	0x3de09291	0.10965455
232	0x3ec4ecd9	0.3846195
233	0x3e322f9f	0.17400979
234	0x3f07f565	0.5310882
235	0x3edf2353	0.43581638
236	0x3ca3e957	0.020008726
237	0x3e6a5ca4	0.22886902
238	0x3eeaace3	0.45835027
239	0xbee0bfc5	-0.4389631
240	0x3c132f21	0.008983404
241	0x3de22200	0.11041641
242	0x3d65c3b3	0.056094836
243	0x3eb33804	0.35003674
244	0x3ea81810	0.32830858
245	0x3e5b87ec	0.21438569
246	0x3e3e2a6b	0.18570869
247	0x3e90f965	0.28315273
248	0xbe47e2e3	-0.19520144
249	0x3d1eda5c	0.038782462
250	0x3e1ee0e3	0.15515475
251	0x3df8a622	0.12141062
252	0x3e6a6462	0.22889856
253	0x3ea1dc21	0.31613258
254	0x3edf541a	0.43618852
255	0x3ddf98f2	0.10917844

gnn.linear2.bias f4 [16]
0	0xbe3f2430	-0.18666148
1	0xbdb7173d	-0.08939979
2	0xbc4ccc1d	-0.012499836
3	0x3e81a716	0.2532279
4	0x3eb049ae	0.34431213
5	0xbdcba150	-0.09942877
6	0xbdd6a5e3	-0.10480859
7	0x3eb42e54	0.35191596
8	0xbd8958cc	-0.0670639
9	0xbe31be14	-0.17357665
10	0x3e88c80e	0.2671513
11	0x3ecf7d61	0.40525344
12	0xbe0d33bc	-0.13789266
13	0xbdb1ca4c	-0.08681163
14	0xbddf113c	-0.10891959
15	0xbe68e38e	-0.22743055

gnn.linear3.weight f4 [16, 16]
0	0x3dc071f0	0.09396732
1	0xbd60bc04	-0.054866806
2	0x3ddda58f	0.108225934
3	0xbe2b0919	-0.16702689
4	0x3eacd460	0.3375578
5	0x3bb0cb80	0.005395353
6	0x3df6891b	0.120378695
7	0x3e399635	0.18123706
8	0x3e2d47e6	0.16921958
9	0x3de145a0	0.10999608
10	0xbe35d1e9	-0.17755856
11	0x3caed894	0.021343507
12	0xbe27f725	-0.16402872
13	0x3c3b4be9	0.011431673
14	0xbc1b99d2	-0.009497123
15	0xbeb26786	-0.34844607
16	0xbc2c5a50	-0.010519579
17	0xbdf31c6d	-0.11870656
18	0x3ea3b006	0.31970233
19	0x3e46e99b	0.19425051
20	0xbf1458ee	-0.57948196
21	0xbe342b3a	-0.17594615
22	0x3e495382	0.19660762
23	0x3dab1095	0.08352772
24	0xbc7f3f20	-0.015579015
25	0x3d36f5e8	0.04466811
26	0x3da9b1ed	0.0828589
27	0xbe945de8	-0.28977895
28	0xbe960520	-0.29300785
29	0x3e2a36d8	0.16622484
30	0x3ea330ce	0.31873173
31	0x3e45a9da	0.19303074
32	0xbd84175c	-0.06449768
33	0xbd9f3145	-0.07773069
34	0xbe13707c	-0.14398378
35	0xbd9e778f	-0.07737648
36	0x3f0f0223	0.55862635
37	0x3dd0f894	0.102036625
38	0xbe010b46	-0.12601957
39	0x3dcd2326	0.1001647
40	0x3de59780	0.11210537
41	0xbdbd816c	-0.09253201
42	0x3d624012	0.055236883
43	0x3ea06c57	0.31332657
44	0xbdc8435e	-0.09778474
45	0x3d7cece3	0.06174935
46	0xbe898089	-0.26855877
47	0x3e0fd147	0.14044677
48	0xbdb92998	-0.090411365
49	0xbdf434e9	-0.11924154
50	0x3e168a6b	0.1470124
51	0xbea6b74a	-0.32561713
52	0xbdaad0b2	-0.08340587
53	0x3e7689b6	0.2407597
54	0xbde04722	-0.109510675
55	0x3e088d03	0.13335042
56	0x3e630cd2	0.2217286
57	0x3e6e0d7e	0.23247334
58	0xbdf98bd8	-0.12184876
59	0x3df31a3b	0.118702374
60	0xbe2c7264	-0.16840512
61	0xbdae48f4	-0.085100085
62	0x3e84429a	0.25832063
63	0x3deb102d	0.11477695
64	0x3e0d0ef6	0.13775238
65	0x3e732a20	0.23746538
66	0xbe579063	-0.21051173
67	0x3da6747d	0.08127687
68	0x3d19ba41	0.03753114
69	0x3e06fe04	0.13182837
70	0x3df2a8e8	0.118486226
71	0xbe137cdc	-0.14403099
72	0xbe4a3bd6	-0.19749388
73	0x3e4ccce4	0.20000035
74	0xbe46c4ec	-0.19411057
75	0x3ddd7f0f	0.1081525
76	0xbe73c272	-0.23804644
77	0xbd3111c8	-0.04322985
78	0xbd4bce5f	-0.049757358
79	0x3d198f67	0.037490275
80	0x3ca576d0	0.020198256
81	0x3da141bc	0.07873866
82	0xbce4c947	-0.027928008
83	0x3d7a1709	0.061057124
84	0x3e7d35ef	0.24727605
85	0xbe2590c4	-0.16168505
86	0xbc5f8550	-0.013642624
87	0xbdc38fbf	-0.09548902
88	0x3e6083aa	0.21925226
89	0x3e5b0a6e	0.21390697
90	0xbbe4c66f	-0.006981663
91	0xbdb165dc	-0.08662006
92	0xbe1e18fa	-0.15439215
93	0x3e37171a	0.17879906
94	0xbc8fcfe1	-0.01755518
95	0x3e70e52f	0.23524927
96	0x3e11eab0	0.14249682
97	0x3e5ff866	0.218721
98	0x3e4ab7a6	0.19796619
99	0xbe25d7e5	-0.16195638
100	0x3d95cab0	0.0731405
101	0xbdd4341c	-0.103615016
102	0x3e006326	0.12537822
103	0xbcb56dde	-0.022147115
104	0x3cb135d0	0.021632105
105	0xbe30f786	-0.17281923
106	0xbe6427b3	-0.22280769
107	0x3dc0b675	0.09409801
108	0x3d6dd930	0.058068454
109	0x3cb1cf30	0.02170524
110	0x3e2ede27	0.17076932
111	0xbdd51d66	-0.10405998
112	0x3db5a9bc	0.08870265
113	0xbe0ced57	-0.13762413
114	0x3d541228	0.051775128
115	0xbd69aa68	-0.057047278
116	0x3e33327c	0.17499727
117	0x3e5fc286	0.21851549
118	0x3e5e3c32	0.2170265
119	0x3c382ab0	0.011240646
120	0x3e16e390	0.14735246
121	0xbe7fa808	-0.24966443
122	0xbe16187a	-0.14657775
123	0x3d36ecb8	0.044659346
124	0x3ab6a880	0.0013935715
125	0xbe48e1ca	-0.19617382
126	0xbde2820c	-0.11059961
127	0xbdef0448	-0.116707385
128	0xbe7d8376	-0.2475718
129	0x3cc339c0	0.023831248
130	0x3de32431	0.11090887
131	0x3d2bd933	0.041955184
132	0xbe365ce0	-0.17808867
133	0xbe6af68e	-0.22945616
134	0xbe4e72a0	-0.20160913
135	0xbd60b754	-0.054862335
136	0x3e300556	0.17189535
137	0xbdcf3f10	-0.1011945
138	0xbe482542	-0.19545463
139	0xbe4569c8	-0.19278634
140	0xbcb16c38	-0.021658048
141	0xbe72fea7	-0.23729955
142	0xbe7257c7	-0.23666297
143	0x3e7be216	0.24597964
144	0xbdf41058	-0.1191718
145	0xbdd1ed4e	-0.102503404
146	0xbd00562a	-0.031332172
147	0xbe37d4a6	-0.17952213
148	0xbe67c16a	-0.22632375
149	0x3d9ca804	0.07649234
150	0xbdb34ff5	-0.08755485
151	0xbc39663a	-0.011315877
152	0xba9cabb0	-0.0011953022
153	0xbe7eba18	-0.24875677
154	0x3e713471	0.23555161
155	0x3ddf6d2f	0.10909497
156	0x3de2ff34	0.110838324
157	0xbda439c9	-0.08018834
158	0x3eeb4cd0	0.4595704
159	0x3d553828	0.052055508
160	0xbd7d33d0	-0.06181699
161	0x3bc11eed	0.005893579
162	0xbe8b18fd	-0.27167502
163	0x3e99ba78	0.30025077
164	0x3eb97f87	0.36230108
165	0xbced41c0	-0.028962016
166	0xbd93aada	-0.07210322
167	0xbd0f88c6	-0.035042547
168	0xbd2905d0	-0.04126531
169	0xbe58d994	-0.2117675
170	0x3dd0c3d6	0.10193603
171	0x3ef2942e	0.47378677
172	0x3e964cf8	0.29355597
173	0xbdaff972	-0.085925
174	0xbeaf1d80	-0.34202194
175	0xbe7192ca	-0.23591152
176	0x3e7f6bc0	0.24943447
177	0x3e6a8a4e	0.22904322
178	0xbe046d28	-0.12932265
179	0xbe59b9f2	-0.21262339
180	0xbe669e84	-0.22521406
181	0xbdf670a0	-0.120332
182	0x3e57235a	0.2100958
183	0x3dabdf4c	0.083922
184	0x3e76e23e	0.24109742
185	0x3e3da951	0.1852162
186	0x3b6d6a40	0.003622666
187	0xbe1e961a	-0.15486947
188	0x3e79dd32	0.24400786
189	0x3e4d41c8	0.20044625
190	0x3ddd8f84	0.10818389
191	0xbe0bc6ac	-0.13650006
192	0x3e499328	0.19685042
193	0xbd0a1494	-0.03371103
194	0x3e5ea21b	0.21741526
195	0x3ce9d9a9	0.028546171
196	0xbdee59a8	-0.11638194
197	0xbe6086b4	-0.21926385
198	0xbe021fff	-0.12707518
199	0x3de7232a	0.11286004
200	0xbd553bc0	-0.052058935
201	0xbe5e9b9e	-0.21739051
202	0x3e210fb9	0.15728654
203	0xbe35e057	-0.1776136
204	0x3e1173df	0.14204358
205	0xbe46c1dd	-0.1940989
206	0x3e5b9aa3	0.21445708
207	0x3e5c2ee1	0.21502258
208	0xbdd75aac	-0.10515341
209	0xbd557910	-0.052117407
210	0xbdbd6c84	-0.09249213
211	0x3e0c35de	0.13692424
212	0xbd427720	-0.047476888
213	0x3e4202be	0.18946359
214	0x3d698c28	0.05701843
215	0xbd1e25c0	-0.03861022
216	0xbe13cb5e	-0.14433047
217	0xbe6a4cac	-0.2288081
218	0xbd954a40	-0.07289553
219	0xbe6cf329	-0.23139633
220	0xbd3da056	-0.046295486
221	0x3b85d400	0.0040841103
222	0xbc83ead0	-0.016103178
223	0xbdfb61d8	-0.122745216
224	0x3e319838	0.17343223
225	0x3daa4b7d	0.083151795
226	0xbe113d8c	-0.14183635
227	0xbe30279e	-0.17202613
228	0x3dac8dd1	0.08425487
229	0x3e5e9e8a	0.21740165
230	0xbe6be347	-0.23035918
231	0xbe04ad64	-0.12956768
232	0xbcbdf7a0	-0.023189366
233	0xbdb9492c	-0.090471596
234	0x3e119ce9	0.14220013
235	0xbde58a58	-0.112080276
236	0x3e1bfca3	0.15233092
237	0x3aa1ea20	0.00123531
238	0x3da3037a	0.079596475
239	0xbe32d6ca	-0.17464748
240	0xbdaa2948	-0.08308655
241	0x3d6b0ee1	0.057387237
242	0x3d24e6b2	0.04025907
243	0xbdad05e9	-0.08448393
244	0x3e2a25a2	0.16615918
245	0xbe3119de	-0.17295024
246	0x3dc2f547	0.09519439
247	0x3e1bacbe	0.15202615
248	0xbd31f848	-0.04344967
249	0x3e4b24b0	0.19838214
250	0xbd8adfc8	-0.06780964
251	0xbe853ea0	-0.26024342
252	0xbe48ffa3	-0.19628768
253	0x3dbe7b98	0.093009174
254	0xbe37cd3e	-0.17949387
255	0x3d762a28	0.060098797

gnn.linear3.bias f4 [16]
0	0x3ecf4a75	0.40486494
1	0x3e205664	0.15657955
2	0x3d1a996d	0.037743974
3	0xbd376632	-0.044775195
4	0xbe4b154f	-0.19832347
5	0xbe570a98	-0.21000135
6	0xbe403786	-0.1877118
7	0xbe56b4fc	-0.20967478
8	0xbc0707d9	-0.008241617
9	0x3bc2469c	0.0059288274
10	0xbc8750e7	-0.01651807
11	0xbe7a4954	-0.24442035
12	0xbd997bb8	-0.074943006
13	0xbe112fec	-0.14178437
14	0xbdec5f21	-0.11541582
15	0xbe8ffc1d	-0.28122035

gnn.linear4.weight f4 [16, 32]
0	0xbdcc2621	-0.0996821
1	0x3d6b4567	0.057439234
2	0xbe7837b9	-0.24240007
3	0xbd584f29	-0.052809868
4	0xbca94ba2	-0.020665947
5	0xbdb994eb	-0.09061607
6	0xbd96a594	-0.073558
7	0x3bdef18f	0.0068036984
8	0x3d9aae99	0.07552833
9	0xbded5f42	-0.115904346
10	0x3e02712a	0.12738481
11	0x3e10eccd	0.14152832
12	0xbcd3483c	-0.02579128
13	0x3d022808	0.031776458
14	0xbda1da00	-0.07902908
15	0x3dc7b5e9	0.097514935
16	0x3d873d45	0.06603483
17	0xbca8b118	-0.020592257
18	0xbe963492	-0.29336983
19	0x3ed86c11	0.42269948
20	0x3f1c00ca	0.60938704
21	0xbcfd2c11	-0.030904802
22	0x3daa967c	0.08329484
23	0x3ed26929	0.41095856
24	0xbd90bbf1	-0.07067097
25	0xbc48f752	-0.012265997
26	0x3ef83464	0.4847747
27	0x3ef69794	0.4816252
28	0xbe0dcd52	-0.13847855
29	0xbc5dbc1c	-0.013533618
30	0x3e28f686	0.16500291
31	0xbeb01473	-0.34390602
32	0xbdbd80bc	-0.0925307
33	0x3e150c4b	0.1455547
34	0x3baf2a42	0.0053456137
35	0x3d3749b8	0.044748038
36	0x3dc493e3	0.0959852
37	0xbc99165d	-0.018687421
38	0x3d280678	0.041021794
39	0x3db29625	0.08720044
40	0xbddafa0f	-0.10692226
41	0x3d0616a3	0.03273643
42	0x3db06218	0.0861246
43	0x3decb1ce	0.11557351
44	0xbd89e6e5	-0.06733493
45	0x3d396f85	0.04527237
46	0xbdaab41a	-0.08335133
47	0x3dd822ac	0.10553488
48	0x3dc41785	0.095747985
49	0xbc9f4c10	-0.01944545
50	0xbe935000	-0.28771973
51	0x3df29ad0	0.118459344
52	0x3e4af64d	0.19820519
53	0xbe1c5cc2	-0.1526976
54	0xbdfff1f6	-0.12497322
55	0x3e938519	0.28812483
56	0x3e074df1	0.13213326
57	0x3dc88bd7	0.09792297
58	0x3e59926d	0.21247263
59	0x3e88e280	0.26735306
60	0x3dcba734	0.09944001
61	0x3defabcb	0.11702689
62	0xbdb9dd6a	-0.090754345
63	0xbe71d6ff	-0.23617171
64	0x3e010350	0.1259892
65	0xbbb7e8a3	-0.0056124493
66	0x3d5c17ec	0.05373375
67	0xbea774e0	-0.32706356
68	0xbd2ce10f	-0.04220682
69	0x3e15debc	0.14635748
70	0x3e0c83b3	0.13722114
71	0xbe06b09b	-0.13153307
72	0x3df9c9c3	0.12196686
73	0xbe261ebb	-0.1622266
74	0xbe9a98b8	-0.3019464
75	0xbeb8a028	-0.3605969
76	0x3e0d8987	0.13821994
77	0xbad18f10	-0.001598807
78	0xbe592aaf	-0.21207689
79	0x3d9742e1	0.07385803
80	0xbd877532	-0.0661415
81	0xbe269e5d	-0.16271348
82	0x3e74dba5	0.23911913
83	0x3e225667	0.15853272
84	0x3e11f293	0.14252691
85	0xbdee58cb	-0.1163803
86	0x3da9aaec	0.08284554
87	0x3e92f9f1	0.28706315
88	0x3c6baaa2	0.014383944
89	0xbdb5c26a	-0.08874972
90	0x3e42c086	0.19018754
91	0x3e324bab	0.17411678
92	0xbe4cf2fb	-0.20014565
93	0xbdea8129	-0.114504166
94	0x3e4c9491	0.19978549
95	0x3dab2d0e	0.08358203
96	0xbd6881fd	-0.05676459
97	0x3e11c52b	0.1423537
98	0xbe00b701	-0.1256981
99	0x3e30452d	0.17213888
100	0x3e0bf6e6	0.13668403
101	0x3d078f4b	0.03309564
102	0x3dadf99e	0.08494876
103	0x3de33ff8	0.110961854
104	0xbdd58914	-0.10426536
105	0xbac9f282	-0.0015407356
106	0x3dc5fbc2	0.096671596
107	0x3cee02ee	0.029054131
108	0x3de24212	0.11047758
109	0xbd8aa68e	-0.06770049
110	0xbeae6a8e	-0.3406567
111	0xbea07782	-0.31341177
112	0xbe27ebb5	-0.16398509
113	0x3e46b08a	0.19403282
114	0xbe6e8181	-0.2329159
115	0x3daff48d	0.08591566
116	0x3ed95de8	0.42454457
117	0xbdf3d3d9	-0.11905641
118	0xbdc182b4	-0.09448758
119	0x3ea1cad2	0.31600052
120	0xbe07d7e5	-0.13265951
121	0x3daaa712	0.083326474
122	0x3eab8e01	0.33506778
123	0x3eb34364	0.35012352
124	0x3e0c1a6b	0.13681953
125	0xbdcbc810	-0.09950268
126	0x3da9c42c	0.0828937
127	0xbdd5c953	-0.1043879
128	0x3d2bfc0d	0.04198842
129	0x3e56ef4a	0.20989719
130	0xbe6fe8b6	-0.23428616
131	0xbe1e45d2	-0.15456322
132	0xbb68e854	-0.003553887
133	0xbe1d43a2	-0.15357831
134	0x3db128ac	0.08650336
135	0xbe10ca87	-0.14139758
136	0xbd82e14d	-0.06390629
137	0xbe0f8df3	-0.14018993
138	0xbd587a29	-0.052850876
139	0xbe709c1b	-0.2349705
140	0x3ca76cb2	0.020437572
141	0x3da0c060	0.078491926
142	0xbd4c7103	-0.049912464
143	0xbd591c27	-0.053005364
144	0xbd86fd9e	-0.065913424
145	0xbcbbd5b5	-0.022929052
146	0x3c97ed4e	0.018545773
147	0xbe1a9165	-0.15094526
148	0x3b6fa81c	0.0036568707
149	0x3d884604	0.066539794
150	0x3e117d1e	0.14207885
151	0xbe86b061	-0.2630644
152	0x3e1174f8	0.14204776
153	0xbda642a6	-0.08118181
154	0xbe4ba4d3	-0.19887094
155	0xbe1cf922	-0.15329412
156	0x3ccb3272	0.024804328
157	0x3d0f2862	0.03495062
158	0xbda02707	-0.07819944
159	0xbe2549fd	-0.16141506
160	0x3d5f9f78	0.05459544
161	0xbe502ccf	-0.20329593
162	0x3dab6d6f	0.08370482
163	0x3e2b4618	0.16725957
164	0xbd7ec6ae	-0.062201194
165	0x3e1af188	0.151312
166	0x3dc1ee9a	0.09469338
167	0x3bcdfeee	0.0062864935
168	0x3d3cf69b	0.04613362
169	0xbd973500	-0.07383156
170	0x3e88b665	0.26701656
171	0x3dace09c	0.08441278
172	0xbd8f06e7	-0.069837384
173	0x3e1c4e73	0.15264301
174	0x3d90fc97	0.07079428
175	0xbcf87fea	-0.030334432
176	0xbd4612f5	-0.048357923
177	0xbdd88374	-0.10571948
178	0xbe77ff3e	-0.24218461
179	0x3e2313c5	0.1592551
180	0x3e2b349a	0.16719285
181	0xbdba6620	-0.0910151
182	0xbd0ab84a	-0.033867158
183	0x3eb2b151	0.34900907
184	0x3e051aa7	0.12998448
185	0xbdd8cff3	-0.10586538
186	0x3e4b3ce0	0.1984744
187	0x3e8e7f41	0.27831462
188	0xbd13a5cf	-0.0360468
189	0xbd020919	-0.031746957
190	0x3dc6de50	0.097103715
191	0xbe33690d	-0.17520542
192	0xbdb3765b	-0.08762809
193	0xbd00707d	-0.031357277
194	0xbe967740	-0.29387856
195	0xbdddddbc	-0.10833308
196	0xbc6d76d4	-0.014493663
197	0xbdb1a6f5	-0.08674423
198	0xbc2ef43d	-0.010678348
199	0x3dab20be	0.083558545
200	0x3d77b566	0.06047573
201	0xbdb8304b	-0.08993586
202	0xbe15d141	-0.14630605
203	0xbdd93ea1	-0.10607649
204	0xbdd53d08	-0.104120314
205	0x3d9d8d2c	0.07692942
206	0xbe6b57ea	-0.22982755
207	0x3d42a42f	0.04751986
208	0xbdc68c7b	-0.09694763
209	0xbdd80608	-0.10548025
210	0xbe4719a0	-0.19443369
211	0xbe0334ab	-0.1281306
212	0xbe240fc2	-0.16021636
213	0x3ce7ad62	0.028280918
214	0x3bf4ede4	0.007474648
215	0xbeb91385	-0.36147705
216	0x3dcc75e3	0.099834226
217	0xbdd1c11a	-0.10241909
218	0xbe99432b	-0.29934058
219	0xbee343b1	-0.44387582
220	0xbe5859ea	-0.2112805
221	0x3dca43c8	0.098762095
222	0xbe4f6d9f	-0.20256661
223	0x3d85acfd	0.065271355
224	0x3e0ff92e	0.14059898
225	0x3cf7f007	0.030265821
226	0xbe734b32	-0.23759153
227	0x3d1c6052	0.038177796
228	0x3ee1ccb5	0.44101492
229	0x3dae025c	0.08496544
230	0x3d6c618f	0.057710227
231	0x3d216be3	0.03940953
232	0x3cd834da	0.02639239
233	0x3a4d824d	0.0007839546
234	0xbd9b719a	-0.07590027
235	0x3e1f1028	0.15533507
236	0xbd901ca9	-0.070367165
237	0x3db09e2c	0.08623919
238	0xbd97db0f	-0.07414829
239	0xbd95611d	-0.072939135
240	0xbdab9d7f	-0.08379649
241	0x3da594e2	0.08085038
242	0xbe90a290	-0.28249025
243	0xbeaeada3	-0.3411685
244	0xbeadfc22	-0.33981425
245	0x3dffdd80	0.1249342
246	0x3d5f2794	0.054481104
247	0xbe9ffa9a	-0.3124588
248	0x3e0f06e6	0.13967475
249	0x3d0e8ea1	0.03480399
250	0xbeaed62c	-0.34147775
251	0xbf1a77a9	-0.60338837
252	0xbdda5278	-0.10660261
253	0x3c90e1cd	0.017685795
254	0xbe8f0997	-0.27937004
255	0x3e5637d3	0.20919733

gnn.linear4.bias f4 [16]
0	0x3dc06e36	0.09396021
1	0xbe264c5d	-0.16240068
2	0x3e8e5ffe	0.2780761
3	0x3e1d4f8f	0.1536238
4	0xbdd08bc2	-0.10182907
5	0xbdd44bd4	-0.103660256
6	0x3c145f5c	0.009055939
7	0x3eca1173	0.39466438
8	0xbd9fb9d1	-0.077991135
9	0xbea4bec1	-0.32176784
10	0xbe2de807	-0.16983043
11	0x3eb03237	0.3441331
12	0x3edd8fd0	0.43273783
13	0x3ea35b22	0.31905466
14	0x3dd37d6c	0.10326657
15	0x3eb71470	0.3575778

linear.weight f4 [2, 32]
0	0xbddd6e40	-0.10812044
1	0x3f15a846	0.5845989
2	0xbed94372	-0.4243427
3	0x3d90e380	0.07074642
4	0xbe76b28e	-0.2409155
5	0x3c8f9412	0.01752666
6	0xbc707364	-0.014675949
7	0xbd27b7b1	-0.040946666
8	0x3e37e7ba	0.1795949
9	0x3e867829	0.2626355
10	0xbe8eeeb6	-0.27916497
11	0xbd7f9ecf	-0.06240731
12	0x3e0c9747	0.13729583
13	0x3de3594a	0.11101015
14	0xbd06b47f	-0.03288698
15	0xbdf038a1	-0.11729551
16	0x3e90ea21	0.28303626
17	0x3e886573	0.266399
18	0x3e824db6	0.25449914
19	0xbcc2de52	-0.023787651
20	0xbea2ec05	-0.31820694
21	0xbbe35195	-0.0069372156
22	0xbd41600e	-0.047210746
23	0xbebe6dd2	-0.3719316
24	0xbe986aee	-0.2976908
25	0x3ea7e912	0.32795006
26	0xbda5086b	-0.08058246
27	0x3e8d05cd	0.27543488
28	0xbeeb9b9b	-0.46017155
29	0x3ea78105	0.32715622
30	0x3ee3466f	0.44389674
31	0x3efa9284	0.48939908
32	0x3e9bf121	0.30457404
33	0xbf31fbdc	-0.6952493
34	0x3e67977f	0.22616385
35	0x3ddef179	0.10885901
36	0xbdae6bf0	-0.08516681
37	0x3d441ea8	0.0478808
38	0xbded5eea	-0.11590369
39	0x3d9b1039	0.075714536
40	0x3dabaa13	0.083820485
41	0xbe8779fa	-0.26460248
42	0x3ee685b8	0.45023894
43	0x3da8d8b0	0.08244455
44	0xbdfaf4bc	-0.12253711
45	0x3e2d2f25	0.16912515
46	0xbdb50f7b	-0.08840843
47	0xbd4cbc16	-0.04998406
48	0xbeba1a41	-0.36348155
49	0xbdf161bb	-0.11786219
50	0xbe507ef8	-0.20360935
51	0xbd80ca59	-0.06288595
52	0x3a9488a0	0.0011332221
53	0xbddd7ae9	-0.10814459
54	0x3e9e25dc	0.3088826
55	0x3f0072c4	0.5017512
56	0x3ebfae10	0.37437487
57	0xbe6f1a84	-0.23349959
58	0x3c06ee8c	0.008235585
59	0xbed8e006	-0.42358416
60	0x3ef6cc12	0.48202568
61	0xbed23490	-0.41055727
62	0xbebf02e8	-0.37306905
63	0xbed98acd	-0.4248871

linear.bias f4 [2]
0	0xbd17d3d9	-0.037067268
1	0x3e258c0b	0.16166703

proj_head1.0.weight f4 [16, 16]
0	0xbcae3318	-0.021264598
1	0x3ef2bdfd	0.47410575
2	0xbe074970	-0.13211608
3	0xbd034c92	-0.032055445
4	0xbe1b7034	-0.15179521
5	0xbdeb6957	-0.11494701
6	0xbe0e97d6	-0.13925108
7	0x3e37dc42	0.17955115
8	0x3e76d745	0.24105556
9	0xbe6b5d0e	-0.22984716
10	0xbeac1897	-0.3361251
11	0xbd447700	-0.04796505
12	0xbe140b48	-0.14457428
13	0xbe69b5cc	-0.22823256
14	0xbe872e4b	-0.26402506
15	0xbe224772	-0.15847567
16	0xbca712b8	-0.020394668
17	0xbeb788bb	-0.35846505
18	0x3e8b0cea	0.2715829
19	0x3e1615d5	0.14656766
20	0x3c853506	0.016260635
21	0x3e4dae8c	0.20086116
22	0xbdbd7f70	-0.092528224
23	0xbe706dea	-0.23479429
24	0xbe744e53	-0.23858003
25	0x3dff9f2e	0.12481533
26	0x3e3d84fa	0.18507758
27	0xbe54c544	-0.20778376
28	0xbd057e8a	-0.03259138
29	0x3dd5d244	0.104404956
30	0xbe1938c3	-0.14963059
31	0xbe228856	-0.1587232
32	0x3e7a72e6	0.24457893
33	0xbd9e3411	-0.07724775
34	0x3df001f9	0.11719126
35	0x3c314284	0.010819081
36	0xbe8c25c3	-0.2737256
37	0x3e5f6484	0.21815687
38	0x3e5c559e	0.21517035
39	0xbdab5818	-0.08366412
40	0x3d0b4271	0.03399891
41	0x3e0c616d	0.1370904
42	0xbdd405e6	-0.103526875
43	0xbd2d76b0	-0.042349517
44	0xbe953276	-0.2914006
45	0xbe0ae7cc	-0.13564986
46	0xbdb04859	-0.08607549
47	0xbe941361	-0.28921035
48	0x3e44e274	0.1922701
49	0x3dcafbfd	0.09911344
50	0x3dd4d22d	0.1039165
51	0xbda9f499	-0.082986064
52	0x3e20e43d	0.15712066
53	0x3d343a20	0.044000745
54	0xbc2df600	-0.010617733
55	0x3e5bd322	0.2146726
56	0xbe2db06c	-0.16961831
57	0xbdfd14ed	-0.12357507
58	0xbea312f7	-0.31850407
59	0x3d8b3430	0.06797063
60	0xbeadef6e	-0.33971733
61	0xbd0446a8	-0.032293946
62	0xbe201443	-0.15632729
63	0x3c9da333	0.019242859
64	0xbe230b0d	-0.15922184
65	0x3ea6f0dd	0.3260564
66	0xbec72a31	-0.38899377
67	0xbe191791	-0.14950396
68	0xbd71cb21	-0.05903161
69	0xbe38b7d8	-0.18038881
70	0xbd23b018	-0.039962858
71	0xbe620f66	-0.22076187
72	0x3dae5620	0.08512521
73	0xbe4c9350	-0.1997807
74	0x3dc513b5	0.096228994
75	0xbe550a88	-0.20804799
76	0xbd231c08	-0.039821655
77	0xbd85cd84	-0.065333396
78	0x3db64163	0.0889919
79	0xbd52e27d	-0.051485527
80	0xbd061396	-0.032733522
81	0xbea92d04	-0.33042157
82	0x3ed95083	0.42444238
83	0x3e0853ce	0.13313219
84	0xbe17a068	-0.14807284
85	0x3e4331ba	0.19061938
86	0x3d6161a0	0.055024743
87	0x3e26d303	0.16291432
88	0x3df1d080	0.11807346
89	0x3e163255	0.14667638
90	0x3cb46d81	0.022024872
91	0xbcfb7fe0	-0.030700624
92	0xbcf4be33	-0.02987585
93	0x3e6a2cc0	0.22868633
94	0x3da4f836	0.08055155
95	0xbde79129	-0.11306984
96	0x3d85a19c	0.06524965
97	0x3c10d058	0.0088387355
98	0x3d7a27af	0.061073
99	0x3d8f683e	0.070023045
100	0x3e376ec7	0.17913352
101	0x3dc405d8	0.09571427
102	0x3e5d6184	0.2161923
103	0xbe1643d0	-0.14674306
104	0x3d577d77	0.052609887
105	0x3d7c64ba	0.061619498
106	0xbe18836d	-0.14893885
107	0x3c369e20	0.011146098
108	0x3dcd3763	0.1002033
109	0xbe36db96	-0.17857203
110	0xbd46aa9d	-0.048502553
111	0x3e678fac	0.226134
112	0x3e889357	0.2667491
113	0x3d04bcc2	0.032406576
114	0xbeb1ed88	-0.34751534
115	0xbdf9ca58	-0.12196797
116	0xbd996126	-0.07489233
117	0xbd2f2980	-0.042764187
118	0x3da3b344	0.079931766
119	0x3e6e371a	0.23263207
120	0xbe2ba95a	-0.16763821
121	0xbc71ea41	-0.014765323
122	0x3ccb6b1a	0.024831343
123	0xbe40568c	-0.18783015
124	0xbeacb874	-0.33734477
125	0x3e42f4ea	0.1903874
126	0xbe673713	-0.22579603
127	0x3e3d6426	0.18495235
128	0xbe82a93d	-0.25519744
129	0xbd820c7e	-0.06350039
130	0x3e251d44	0.16124445
131	0xbab20980	-0.0013583153
132	0xbe161cee	-0.14659473
133	0xbe7f4660	-0.2492919
134	0x3e1b245e	0.15150592
135	0x3d685338	0.05671999
136	0x3c92d794	0.017925061
137	0x3d427c0c	0.04748158
138	0x3e32b48e	0.17451689
139	0x3d7cdfb0	0.061736763
140	0x3e0c8b17	0.13724934
141	0x3dae144c	0.08499965
142	0xbb7cb22d	-0.003855835
143	0x3e3494bf	0.17634867
144	0x3e11eff5	0.14251693
145	0xbe02617b	-0.12732498
146	0x3d02ce5c	0.03193508
147	0x3e875d8d	0.2643856
148	0x3e0314c4	0.1280089
149	0xbe37fe0e	-0.17968008
150	0x3da49fb4	0.080382735
151	0xbd0fbef8	-0.03509423
152	0x3cd29304	0.025704868
153	0x3debb19f	0.11508488
154	0x3d3eae95	0.046553213
155	0xbe6a58dc	-0.2288546
156	0xbecdba57	-0.4018123
157	0xbd092998	-0.033486933
158	0xbe18b1ec	-0.14911622
159	0xbe3f7833	-0.18698196
160	0xbe6d5e39	-0.23180474
161	0xbc0afac9	-0.008482643
162	0x3e006fc4	0.12542635
163	0x3d2c04e0	0.041996837
164	0x3e69a574	0.22817022
165	0xbe2065d2	-0.15663841
166	0xbd0728a0	-0.032997727
167	0x3e623e32	0.22094038
168	0x3c55a405	0.013039594
169	0xbd3163b4	-0.043307975
170	0x3d9c7ab4	0.07640591
171	0xbe12210c	-0.14270419
172	0x3e88a51c	0.26688468
173	0xbe52c3f8	-0.20582569
174	0xbdb3d07a	-0.08779998
175	0xbdc097f4	-0.09403983
176	0xbd757943	-0.059930097
177	0x3e1bab3b	0.15202038
178	0xbe87d2f4	-0.26528132
179	0xbe091dbb	-0.13390248
180	0x3e2057d6	0.15658507
181	0x3dae47c0	0.08509779
182	0x3e028272	0.12745073
183	0xbe7354ca	-0.23762813
184	0xbd9da839	-0.076981016
185	0xbe038f1d	-0.12847562
186	0x3cdcfe17	0.026976628
187	0xbe1af1d0	-0.15131307
188	0x3d732d9f	0.05936968
189	0x3e0bded0	0.13659215
190	0xbe45b8bb	-0.1930875
191	0x3e2d5856	0.16928229
192	0x3e5b0058	0.2138685
193	0x3e9f4cdc	0.31113327
194	0xbe1073bc	-0.14106649
195	0xbb363488	-0.0027802307
196	0xbe5d5993	-0.21616201
197	0xbe36a064	-0.17834622
198	0x3df59700	0.119916916
199	0x3d55af70	0.052169263
200	0x3e693594	0.22774345
201	0x3dbb887e	0.09156893
202	0xbe067709	-0.13131346
203	0xbd891ca0	-0.06694913
204	0xbec39cf2	-0.38205677
205	0xbba8ebf0	-0.005155079
206	0xbd553a2a	-0.052057423
207	0xbe0849da	-0.13309422
208	0x3eff6786	0.4988367
209	0x3e8cc209	0.27491787
210	0xbeb914c1	-0.36148646
211	0xbecf57b1	-0.4049659
212	0xbdd38892	-0.10328783
213	0x3e74f6b2	0.23922232
214	0xbdd822ec	-0.10553536
215	0xbe257f56	-0.16161856
216	0xbe25532a	-0.16145006
217	0x3d0c508a	0.034256496
218	0xbeb9dd4d	-0.36301652
219	0xbe3625e8	-0.17787898
220	0xbe1a3a8a	-0.15061393
221	0xbd27fdb0	-0.04101342
222	0xbdf2d666	-0.118572995
223	0x3e22e8e1	0.15909149
224	0xbd47667b	-0.048681717
225	0x3ed46dd8	0.41490054
226	0xbea06baa	-0.3133214
227	0xbd386b8d	-0.045024443
228	0xbde657a4	-0.11247185
229	0xbe1f3146	-0.1554614
230	0xbe17885a	-0.14798108
231	0x3e2e70a0	0.1703515
232	0x3e5c604b	0.21521108
233	0xbe0969de	-0.13419291
234	0xbe32c64c	-0.17458457
235	0xbd96ae84	-0.07357505
236	0xbe3a91e6	-0.18219718
237	0xbde9138c	-0.113806814
238	0xbd438a6c	-0.04773943
239	0xbd3e2fec	-0.04643242
240	0x3eb6793e	0.35639375
241	0xbe343e58	-0.17601907
242	0x3e081433	0.13288955
243	0xbe8dd0cc	-0.27698362
244	0xbe743700	-0.23849106
245	0x3d800984	0.06251815
246	0xbe0e0f76	-0.13873085
247	0xbdd4b084	-0.1038523
248	0xbdbc0115	-0.09179894
249	0x3d87f2c0	0.06638098
250	0xbe5cdb22	-0.21567968
251	0x3d6a1a08	0.05715373
252	0xbe830290	-0.25587893
253	0xbd837944	-0.06419614
254	0xbe7d242e	-0.24720833
255	0xbdf2a2e4	-0.11847475

proj_head1.0.bias f4 [16]
0	0x3dce1c4f	0.10063993
1	0x3e0a5d94	0.1351226
2	0x3e1e82dc	0.15479606
3	0x3ea3bb3b	0.31978783
4	0xbb24262e	-0.002504717
5	0x3d871a5b	0.06596824
6	0xbe08e86c	-0.13369912
7	0x3e844bd6	0.25839108
8	0xbe0ff9c3	-0.1406012
9	0x3e4ce152	0.20007828
10	0xbe452e12	-0.19255856
11	0xbd3be826	-0.04587569
12	0xbe1ce395	-0.1532119
13	0x3e09c073	0.1345232
14	0xb7eff9b0	-2.860729e-05
15	0x3e884b83	0.2662011

proj_head2.0.weight f4 [16, 16]
0	0xbd5cebb5	-0.053935725
1	0xbe29b817	-0.16574131
2	0x3e6313cc	0.2217552
3	0xbeb702e5	-0.35744396
4	0xbcf7e088	-0.030258432
5	0x3bb6dbb2	0.005580389
6	0x3c7f3690	0.015576974
7	0xbde9841a	-0.114021495
8	0x3e1d98e8	0.1539036
9	0x3ed260aa	0.41089374
10	0xbc8a8d4a	-0.016913075
11	0x3ea57622	0.3231669
12	0x3e8c224b	0.27369913
13	0xbde7c16b	-0.113161884
14	0xbde774c6	-0.1130157
15	0x3d941d79	0.07232184
16	0xbdfe086d	-0.12403951
17	0xbe2e0555	-0.16994222
18	0xbeca5ec7	-0.39525434
19	0x3ed748e2	0.42047793
20	0xbd3dcfe2	-0.04634083
21	0x3e965b79	0.29366663
22	0x3c1c0144	0.009521786
23	0x3dc7f7c0	0.097640514
24	0xbe656964	-0.22403485
25	0xbe0669c8	-0.1312629
26	0x3e206ca3	0.15666442
27	0x3d0983ef	0.033573087
28	0x3e3b22c9	0.18274988
29	0xbeb0163c	-0.34391963
30	0xbdb8929c	-0.090123385
31	0xbe8090aa	-0.2511037
32	0xbe244254	-0.16040927
33	0xbe1cb994	-0.15305167
34	0x3e5bce3e	0.21465394
35	0xbe4c9990	-0.19980454
36	0x3e88be49	0.26707676
37	0x3b5c9a46	0.003366129
38	0x3e443e88	0.19164479
39	0x3dcd0147	0.10010009
40	0x3e6c9b38	0.23106086
41	0x3d3c17d4	0.04592116
42	0xbae05330	-0.0017114636
43	0xbe8dc9bd	-0.27692977
44	0x3ddeccb5	0.108788885
45	0x3d282a8c	0.0410562
46	0x3e548226	0.20752773
47	0x3e1bb448	0.1520549
48	0xbe4981d1	-0.19678427
49	0x3dc49400	0.09598541
50	0xbcf03c42	-0.029325608
51	0xbe8f486b	-0.27984938
52	0xbe371ff9	-0.1788329
53	0xbe7f67f4	-0.24941999
54	0x3cf03740	0.02932322
55	0x3e740add	0.23832269
56	0x3e395a6a	0.18100896
57	0x3e23a564	0.1598106
58	0xbe9d0bfa	-0.306732
59	0xbd8889af	-0.06666886
60	0x3dc3d3cf	0.09561884
61	0xbc4871ae	-0.012234135
62	0xbd66197d	-0.05617665
63	0x3d41fea3	0.04736198
64	0x3e8fb125	0.28064838
65	0x3d7b4521	0.061345223
66	0x3e08982a	0.13339296
67	0xbd9dc167	-0.07702904
68	0x3d91eec1	0.07125617
69	0x3d127bfd	0.035762776
70	0x3e9c2f72	0.30504948
71	0x3ea0821b	0.31349263
72	0xbcf7106c	-0.030159198
73	0xbdc3290f	-0.09529316
74	0xbdf3d90f	-0.11906635
75	0xbe146b8d	-0.14494152
76	0x3e68a5a2	0.22719434
77	0x3d1a2456	0.03763231
78	0xbe28011b	-0.16406672
79	0x3cadb73a	0.021205533
80	0x3ebae660	0.36503887
81	0x3e07926f	0.13239454
82	0xbed4526f	-0.41469142
83	0x3e61f30f	0.22065376
84	0xbed3abec	-0.41342103
85	0xbe0a1c6e	-0.13487408
86	0x3e8d7a4e	0.27632374
87	0x3ef056a2	0.46941096
88	0xbc31e691	-0.010858194
89	0xbeb63b47	-0.355921
90	0xbe676f00	-0.22600937
91	0xbe49ea28	-0.1971823
92	0x3ecf6c61	0.40512374
93	0xbe65ae13	-0.22429685
94	0xbe9ca9c6	-0.30598277
95	0xbeca52bb	-0.39516243
96	0xb9b22aa0	-0.00033982564
97	0x3e310334	0.17286378
98	0x3ebbd18b	0.36683306
99	0xbf0924a9	-0.53571564
100	0x3eb17158	0.34656787
101	0xbce87394	-0.028375424
102	0x3e5ac67d	0.2136478
103	0xbc676ca3	-0.014125022
104	0x3e163885	0.14669998
105	0x3e5a4a40	0.21317387
106	0xbd1a13a2	-0.03761638
107	0x3e95d1dc	0.29261672
108	0xbf1a3217	-0.6023268
109	0x3d9add1a	0.07561703
110	0x3d8e621d	0.069523074
111	0x3e8506b7	0.25981686
112	0xbe45e133	-0.19324188
113	0xbd4586b3	-0.048224162
114	0xbe92b663	-0.28654775
115	0xbec4f177	-0.38465473
116	0x3e5828a5	0.21109255
117	0xbe3462e9	-0.17615856
118	0x3e297e5b	0.16552107
119	0x3d5298ca	0.051415242
120	0xbe4440b4	-0.19165307
121	0x3e18e6a6	0.14931735
122	0x3de0a8f0	0.10969722
123	0xbe1ee408	-0.15516675
124	0x3eaa45e7	0.33256456
125	0xbc9a3c74	-0.018827654
126	0x3e56e41c	0.20985454
127	0xbe73bfc0	-0.23803616
128	0x3e21fb47	0.15818511
129	0x3dd25319	0.10269756
130	0x3ed4a446	0.4153158
131	0x3dc673b0	0.096900344
132	0x3e767cd7	0.2407106
133	0xbe5d99de	-0.21640727
134	0x3e2e881c	0.17044109
135	0xbe88d9c1	-0.26728633
136	0xbe1d18f5	-0.15341552
137	0x3e9af37d	0.30263892
138	0xbd8e3594	-0.06943813
139	0x3e28c640	0.16481876
140	0xbe18a8ad	-0.14908095
141	0x3e3bab0c	0.18326968
142	0x3d4e386f	0.050346788
143	0x3e6853c1	0.226882
144	0x3da643e4	0.08118418
145	0x3e78195b	0.24228422
146	0xbe384934	-0.17996675
147	0x3ea96a25	0.33088794
148	0xbee0f775	-0.43938795
149	0x3db78d13	0.08962455
150	0xbdbe8520	-0.09302735
151	0xbe38aa8f	-0.18033813
152	0x3d3cc892	0.046089716
153	0xbec7b3d3	-0.39004382
154	0xbdd26361	-0.10272861
155	0x3e955b0e	0.29171032
156	0x3dc14e2f	0.094387405
157	0xbe73aa0c	-0.23795336
158	0xbde62fbe	-0.11239575
159	0xbe0c1df7	-0.13683306
160	0xbe88787c	-0.26654422
161	0xbbc00828	-0.0058603473
162	0xbe26216a	-0.16223684
163	0xbeac998a	-0.3371089
164	0x3e7348fb	0.23758309
165	0x3d9ac3a4	0.07556847
166	0x3db45562	0.08805348
167	0x3e70933f	0.2349367
168	0x3eb8f437	0.3612382
169	0x3e0cf4d9	0.13765277
170	0x3d480ed0	0.04884225
171	0xbe5e1f93	-0.21691732
172	0xbda2ca15	-0.079487
173	0xbda43f67	-0.080199055
174	0x3db9cdca	0.09072454
175	0x3e1da638	0.15395439
176	0x3d953d7c	0.07287118
177	0xbe84e61a	-0.25956804
178	0xbea0d89c	-0.3141526
179	0xbe388dee	-0.18022892
180	0x3d73810a	0.059449233
181	0xbd8055d7	-0.06266373
182	0xbb69b784	-0.0035662362
183	0x3e544337	0.20728765
184	0x3deec640	0.11658907
185	0xbe83ec90	-0.2576642
186	0xbe8b9a54	-0.2726618
187	0xbde0aad0	-0.1097008
188	0x3ef03bbc	0.46920574
189	0xbdef75b2	-0.116923705
190	0xbca453be	-0.020059463
191	0xbe1d1a40	-0.15342045
192	0x3d664fc6	0.05622842
193	0x3e8a1a7e	0.26973337
194	0x3e661ca4	0.22471863
195	0x3ed24b4e	0.41073078
196	0xbcf13980	-0.029446363
197	0xbd59f8a5	-0.05321564
198	0xbe4e5e88	-0.20153248
199	0x3e08e3cc	0.13368148
200	0xbe5253d5	-0.20539792
201	0x3d29865e	0.04138791
202	0x3e7e27ee	0.2481992
203	0x3a972682	0.0011531862
204	0xbdd422a9	-0.103581734
205	0x3e745e58	0.23864114
206	0x3d0b0c65	0.033947367
207	0xbdf19044	-0.117950946
208	0x3d1cbc60	0.038265586
209	0x3e7cef2b	0.2470061
210	0xbc9010fd	-0.017586226
211	0xbd26eb07	-0.040751483
212	0xbe401b04	-0.18760306
213	0xbd83a4af	-0.06427895
214	0xbd9afeb8	-0.07568115
215	0x3ea6f3ff	0.3260803
216	0x3c8fca42	0.017552499
217	0xbe5a066a	-0.2129151
218	0xbe5cebac	-0.21574277
219	0xbe60505d	-0.21905656
220	0x3edc659a	0.43046266
221	0xbea31798	-0.31853938
222	0xbd21fbf0	-0.039546907
223	0xbe200e3f	-0.15630434
224	0xbeb9d919	-0.36298445
225	0xbded6121	-0.115907915
226	0xbd1f4992	-0.03888852
227	0x3dfaa756	0.12238948
228	0xbcfd0194	-0.030884542
229	0x3e646a99	0.22306289
230	0x3d5c0608	0.05371669
231	0xbe91b781	-0.28460315
232	0x3cdb6e92	0.026786122
233	0xbda3391e	-0.079698786
234	0x3dd4d8b6	0.10392897
235	0xbe40c339	-0.18824472
236	0x3db3425d	0.08752892
237	0x3d4e7d3e	0.05041241
238	0x3de7700b	0.113006674
239	0xbe697d7e	-0.22801778
240	0xbe8f5e32	-0.28001553
241	0xbe9806ec	-0.2969278
242	0xbe1d961c	-0.15389293
243	0x3df7a987	0.12092882
244	0xbe25fd95	-0.16210015
245	0x3e08f19c	0.13373417
246	0x3d4278c4	0.047478452
247	0xbe2f9b36	-0.17149052
248	0xbdc7cd46	-0.0975595
249	0xbd7444dd	-0.059635986
250	0xbe7970b3	-0.24359398
251	0xbe3b353b	-0.18282025
252	0x3ec2ee91	0.38072637
253	0xbdbf043c	-0.093269795
254	0x3daabd20	0.08336854
255	0xbec5428d	-0.38527337

proj_head2.0.bias f4 [16]
0	0xbe428890	-0.18997407
1	0x3da15363	0.07877233
2	0xbe313767	-0.1730629
3	0x3e0f5e06	0.14000711
4	0xbdaee242	-0.08539249
5	0x3ea52bfe	0.32260126
6	0xbe438719	-0.19094504
7	0x3d4d9b80	0.050197124
8	0xbee029a2	-0.43781763
9	0x3e5b60a5	0.21423586
10	0xbca3ff56	-0.020019215
11	0x3e8637d2	0.26214463
12	0xbe18170f	-0.14852546
13	0x3e3dc21b	0.18531077
14	0x3da12a7a	0.0786943
15	0x3e28c1f1	0.16480233
